char_cnn.pth (torch, 279756 bytes, 8 tensors)

conv.0.weight f4 [8, 1, 3, 3]
00000000: 6a89 1abd c15a 9b3e c736 19bf dfde 423e
00000010: 09f9 ce3e 502c 9bbd 02cf 1c3e b1ca 31be
00000020: 159d 623e 53fe 703e 07bd 913e 729d d03e
00000030: 0c2e b13e 0c62 ce3e 3fe0 913e 52a0 c03e
00000040: 9eed d63e 4d9f 963e a98b 503e a285 c7bd
00000050: ba3e 853c fa6c 893e dadc 14bf 4a00 b53e
00000060: f1f7 40be 02ea 36be dd20 d53c 9081 92be
00000070: 90cc c23e ad41 bd3d 3203 26bf 6456 b7bd
00000080: d907 d8be 9845 bc3b 4f8d 423e 2403 573e
00000090: 0b87 963d 1316 05bf 4aea c1be 926a 013f
000000a0: fbd5 0bbe 86d1 acbe de22 0e3f 9b44 8e3d
000000b0: efe2 cabd 0e5e e83e a876 963e 0399 2f3e
000000c0: 0702 fd3e f956 893e 015c 383e 4e44 db3d
000000d0: be6e 3d3e f890 2b3e 9d50 12bf 02ec 9abe
000000e0: d213 c53e a3f4 12bf 6f99 8a3d bcc1 013f
000000f0: c4e9 b6bd c4c2 ed3e e615 3f3e b9bb 143e
00000100: 45af 083f eeb4 113f 4fce 02bf 362f c7be
00000110: e82a 36bd 6848 d83d a55a 9ebe 0f16 10be
-0.037728705 0.30342677 -0.5984921 0.19030331 0.40424374 -0.07576811 0.15313342 -0.17362477
0.22130235 0.23534517 0.2846453 0.4074512 0.34605443 0.4030918 0.284914 0.37622315
0.41978163 0.29418412 0.20365776 -0.09742285 0.016265262 0.26840955 -0.5814949 0.35351783
-0.18844582 -0.17862704 0.026016647 -0.28614473 0.38046694 0.09241042 -0.64848626 -0.089520246
-0.42193487 0.005745601 0.18999217 0.20997292 0.07349976 -0.5198681 -0.3787406 0.5055324
-0.13655846 -0.33753604 0.55521953 0.06946679 -0.099065654 0.45384258 0.29387403 0.17148213
0.4941561 0.26824167 0.18003847 0.107063875 0.18499276 0.1675452 -0.57154256 -0.30258185
0.38491684 -0.57404536 0.067675464 0.5068624 -0.08931306 0.46437657 0.18660697 0.14524736
0.5339244 0.569167 -0.5109605 -0.38903207 -0.044474512 0.105606854 -0.3092853 -0.14070915

conv.0.bias f4 [8]
00000000: 9fbb 14be d134 00bd 9cd4 ba3e 2836 2d3f
00000010: 66ae f43e acc2 05bd d838 883b 1440 063d
-0.14524697 -0.03130037 0.36490333 0.6766076 0.47789305 -0.032656357 0.004157167 0.032775953

conv.3.weight f4 [16, 8, 3, 3]
00000000: a92b 0a3f 1e2b 183f 80f1 0bbd 6a07 163e
00000010: 8170 2a3f 0297 053e c04f ffbd 00b7 b33e
00000020: 1ed1 ef3e c055 003d bad1 30bc 614c 5cbe
00000030: 248b cb3d 0a36 55bc 0165 49be 675f 673d
00000040: bcca 96bc dcef 07be 850d fabe 1430 0c3f
00000050: 7a21 683e 0817 06bf db68 843e 5f0c c33e
00000060: 725f 86bd 55a7 823e b383 493e d1f3 9cbe
00000070: 9736 5e3e c762 363f 7039 31be 9e7d e2be
00000080: d7a7 0b3f 7128 48be 25d1 09bf e72e c73c
00000090: 7d27 193e 1017 0b3f cfad 913d 6ae6 efbe
000000a0: 112d ef3e 8b08 d83e e7e3 16bf c06c 8d3d
000000b0: 4ec2 1f3f ad3d 5b3e 9064 a43c 88cd bebd
000000c0: 478e 613c 994b 28bd c1c6 59bd 3e40 123e
000000d0: 674d 613d 29cb d1bd be6c 2ebe 0b38 b2be
000000e0: 8109 db3e 2286 d13d 37e2 5cbf b90e 823e
000000f0: d9c1 de3d 47d0 debe 3c88 97be 0611 5bbf
00000100: f8d0 57be 52a4 ab3e df10 17bf e511 88bf
00000110: a17c 823e 6340 46be 512a 06bf 50f2 c7bd
00000120: 019c f63e b3b1 a83e a1a4 3d3c f251 9c3e
00000130: d608 43bc 828b 8ebd 1cd2 93bd 2807 4dbd
00000140: b614 d93c dcfb 95bd e7c2 53bd 9910 1fbe
00000150: 38c9 32be b74f 0c3b b0c4 6a3d 231c 743d
00000160: 6812 ad3d 8555 4c3e 8704 253f 242e 3d3f
00000170: ae07 db3e 68a6 a13e 302d d4be e58f 13bf
00000180: ec0e 003d 6728 9cbe ebc4 a9bd f516 cc3e
00000190: 7cfb cb3e e86a 0b3f d273 0c3e 2f2d c5bc
000001a0: 8b03 9dbd 7557 02be ba33 16bf a38e 08bf
000001b0: 4c1f 213e c427 563e d3c7 793e 4a45 8cbd
000001c0: d864 a0bd 84bb debc 7a70 83be 08c7 f4be
000001d0: bd4f 2bbe c584 d4bd c7d5 29be 8b53 81bd
000001e0: 12cf 11be 5cc2 83bd 8b47 183c cb2c ed3d
000001f0: aa74 3b3e 0360 473e 52d0 58be 1c9e 6e3e
00000200: fb88 743e 1da7 933e c0a0 963e c75d 4abd
00000210: 15f1 1e3e 0dd8 9bbe 8b24 0bbf 0d26 823e
00000220: fbc9 073e 78be 03bd 397f 2fbf db8d 53bf
00000230: f7c0 1ebf 3826 f7be b770 9ebd f887 943e
00000240: 74d2 243e a231 933e da93 62bd 4214 ca3e
00000250: 9d95 923e 8599 6cbe 29a2 ae3e 285c 863c
00000260: a1a9 e8be 1afd 4b3e 3217 96bd cb39 36bd
00000270: 133f 6dbd 11e9 f2bd 43f8 1b3e 728f 67bd
00000280: d0c5 2dbe a8aa a43d 9b1d 9fbd 1d29 d83e
00000290: 477e 943e 4119 8c3e a7ed dd3e 2f56 07be
000002a0: bee9 443e 1210 d83e 588b 3fbd ffa4 2ebe
000002b0: 9b88 2d3e 1621 1e3d 6996 4f3e b394 653e
000002c0: 3796 763c 44f4 c53c 786a 24bd a898 cf3d
000002d0: 5054 07be 8367 a33d 6ff0 59be e1fd 10bd
000002e0: 13d5 d13d df9e 10bf baae f93b 9393 a63d
000002f0: 682f 29bf c4ab 263d be51 debb e467 433d
00000300: ba6c 8ebd 939d ffbd f4ec c2bd f182 e83c
00000310: 33d6 4ebc a09f 2f3e b4ec a2be 07eb 743d
00000320: 2f35 623e 340f 27be b420 2e3e df91 493e
00000330: ee24 4b3e 2cb5 ebbd 17f5 a23e 18a8 b9be
00000340: bafd bbbd 5649 c7be 8491 29be 9222 4dbe
00000350: a003 c8be 742b f2bd 4695 48be 58af 48be
00000360: 7159 173e 778f bd3e b73e 4b3d b767 703e
00000370: 5a6e 053f ec4e 37bd 0e49 6a3d a976 cc3e
00000380: 5627 12be 62bc fd3d 7157 f0bc f189 4a3d
00000390: 33f0 1dbe 17b6 47be 187d eabd 1eee 65bd
000003a0: d6e2 793d e681 b43d e809 0e3e 39bb e33e
000003b0: 46a4 653e 2e23 553e b12d dc3e 5334 813e
000003c0: a41d 593e c3bd 713d b4c1 1a3d aca3 47be
000003d0: 6c16 08be 0be9 813d d657 e83d ce44 413e
000003e0: 4a89 bf3e 0954 5bbb 87dd 7fbe 2a6d a63d
000003f0: eaa3 283d 4305 05be 2375 59be 69b1 80be
0.5397287 0.5944079 -0.03416586 0.14651266 0.6657792 0.13045886 -0.12466383 0.35100555
0.4683923 0.031331778 -0.01079219 -0.21513511 0.09938648 -0.013013372 -0.19667436 0.056487467
-0.018407218 -0.13275093 -0.4883844 0.5476086 0.2266902 -0.5237889 0.25861248 0.38095376
-0.065611735 0.2551829 0.19679146 -0.30654767 0.21700512 0.7124447 -0.17307067 -0.44236463
0.5455298 -0.19546677 -0.53834754 0.024314357 0.1495647 0.54332066 0.071132295 -0.4685548
0.4671407 0.42194018 -0.589415 0.06905508 0.6240586 0.21410246 0.020067483 -0.09316546
0.013766832 -0.04108772 -0.053168062 0.14282319 0.055005457 -0.10243828 -0.1703367 -0.34808382
0.42780688 0.10230662 -0.86282676 0.25401857 0.10876817 -0.43518278 -0.29596126 -0.8557285
-0.21075809 0.33523804 -0.5901012 -1.0630461 0.2548571 -0.19360499 -0.5240832 -0.09763014
0.48165897 0.32948074 0.011574895 0.3053127 -0.011903962 -0.06960203 -0.072178096 -0.050055653
0.026499134 -0.07323429 -0.051699545 -0.15533675 -0.17459571 0.0021409818 0.057316482 0.059597146
0.08450776 0.19954498 0.64460033 0.7389853 0.42779297 0.3157227 -0.41440725 -0.5764144
0.03126423 -0.30499575 -0.08289512 0.39861265 0.39840305 0.5446 0.13716057 -0.024069397
-0.076666914 -0.12728675 -0.5867268 -0.53342646 0.15734595 0.20913607 0.24392633 -0.06849153
-0.078317344 -0.027189024 -0.2567175 -0.478081 -0.16729636 -0.10376886 -0.16585456 -0.06314763
-0.14239147 -0.064335555 0.009294401 0.11580809 0.18306223 0.1947022 -0.21173218 0.23302501
0.23880379 0.28838435 0.29419518 -0.04940584 0.15521653 -0.3043827 -0.54352635 0.25419655
0.13260643 -0.032164067 -0.685535 -0.8263833 -0.6201319 -0.48271346 -0.077363424 0.29009986
0.16095906 0.28748804 -0.055316783 0.3946858 0.2862977 -0.23105438 0.34108093 0.016401365
-0.45441917 0.1992077 -0.07328643 -0.04448871 -0.05792148 -0.1186086 0.15231423 -0.056533284
-0.1696999 0.080403626 -0.07769319 0.42218867 0.29002592 0.27363017 0.43345377 -0.1321647
0.1922979 0.4219976 -0.046763748 -0.17055129 0.16946642 0.038605772 0.2027222 0.22420006
0.015050462 0.024164326 -0.0401406 0.10136539 -0.13215756 0.07978728 -0.21283124 -0.035398368
0.10245719 -0.5649242 0.007619706 0.08133616 -0.6608796 0.040691152 -0.006784647 0.0477065
-0.06954332 -0.12481227 -0.095178515 0.02838275 -0.012624311 0.17150736 -0.31821215 0.059794452
0.220906 -0.16314393 0.17004663 0.19684552 0.19838306 -0.11509165 0.31827614 -0.36261058
-0.09179254 -0.38923138 -0.16559416 -0.20032719 -0.39065266 -0.11824694 -0.19588193 -0.19598138
0.14780213 0.37023517 0.049620356 0.23477064 0.5212151 -0.044753 0.057198577 0.3993428
-0.14272818 0.12389447 -0.02933857 0.049447957 -0.1542366 -0.19503056 -0.11449641 -0.05613529
0.061007343 0.08813839 0.13870966 0.44478777 0.22425947 0.20814201 0.4300361 0.25235233
0.21202713 0.05901886 0.037782386 -0.1949603 -0.13289803 0.063432775 0.113448784 0.18873903
0.3740943 -0.0033466837 -0.2498685 0.0812629 0.041171946 -0.12990288 -0.2123609 -0.25135353

conv.3.bias f4 [16]
00000000: 3407 cdbd 2050 d1bd cfef 2f3d 2d5c b13c
00000010: 303b bd3d 3d19 8b3d e8e3 133d 07a3 af3c
00000020: df20 c9bd fdc5 bf3d 42db ad3d 63cb bdbc
00000030: 40ef 0a3e 0f56 cdbd c29a 583a d4c5 d33d
-0.100111395 -0.10220361 0.04295331 0.021650398 0.09239805 0.06791923 0.03610602 0.021440042
-0.09820723 0.09363935 0.08489086 -0.023168271 0.13567829 -0.1002618 0.0008262807 0.10340467

fc.0.weight f4 [64, 1024]
00000000: 814c 2dbd 7766 2e3b 5b3e 13bc 77cd 2ebd
00000010: a03c bcbc db9e 88bc fa1e 20bd 185d a2bc
00000020: 720b abbb 106c 0ebc e804 c0bc 46e9 ab3b
00000030: 1cc5 cabc 445a a6bc 71c2 063d 78d0 9bbc
00000040: 5c2a f0ba ad72 f7bc ef8a 46bc 53c6 15bb
00000050: bdf6 e0bc dd24 67bc 08cf 4abc f18b f8bc
00000060: 0b94 c43a 577c a1bc c254 efbc 8b69 413c
00000070: 3a5a abbc b1db 83bc 7815 d6bc b4d7 0ebd
00000080: 1b62 263c 52a9 783c adb0 533c 5ef5 e4bb
00000090: 75df 49bc 371a d5bc 91ac 50bc 3bb4 993c
000000a0: c28c e9bb f972 17bd 9a7a debc 1b81 c0bc
000000b0: ad30 723c ed79 a3bb d12e eabc fe25 6e3c
000000c0: c8a8 803b 5a7e 77bc 4975 013c 468e 0a3c
000000d0: eefc d1bc df03 04bd 07f6 0dbd 41c1 72bc
000000e0: f15b 3ebc 53a4 7ebb dcfc 333b 0246 44bd
000000f0: 9c37 623c a0e9 6d3c 8762 0ebb cd7e 9f3c
00000100: 2841 0bba 5934 15bd 8aad 2cbd 2d64 8dbc
00000110: 2d8f 2bbb 22d7 7fbc 72fd 89bc e553 953c
00000120: 7617 02bc 86ac ea3b c4db c6bc c6eb 813c
00000130: d9dd f43b 0692 15bd 67e2 84bc f0ef d43b
00000140: b680 2ebd cfa7 39bd 8cbf 02bb 92f9 9e3b
00000150: 270d 35ba fd1d 1abd 115d 8d3c c9c8 e6bb
00000160: 27dd dabc 4a53 373c 9ea8 70bb 1e99 22bd
00000170: 82a8 30bc adab 7fbc a24e 06bd 4d26 dbbc
00000180: edb3 07bd cb80 8c3c 5a03 583c a45c 703c
00000190: 28d5 bfbc d91a 373c d501 353c 0031 313c
000001a0: 66e2 c8bc ed78 8dbb 88eb 27bc 9b79 b83b
000001b0: a886 38bd edea ebbc b79b 9bbc e3cd 39bc
000001c0: c9e6 203b 0fa2 babc cf82 87b8 6e2b 36bd
000001d0: e8c6 383b 336b a0bc 7218 b7bc 0c0e efbb
000001e0: e3c1 6ebc a81e 32bd 99ea a93b f79a 4f3c
000001f0: 12c0 9fbb d4fc 463c 1364 adbc 209f abbc
00000200: 17e6 47bc ed4c 2bbd f4ba d6bc e5ae c03a
00000210: f0f8 963b 4367 2dbd a322 b1bc 6e96 4c3c
00000220: b51d fbbc 9aad 1d3c dbb5 ef3a 489f 0fbd
00000230: 62e7 8fbc 68d3 80bc d618 ebbc b02f 0a3d
00000240: f998 08bc 4bad 4fbb 7a6e 3a3a 0d7c f7bc
00000250: 4b97 38bd 9b5c 05bd 5aae 8ebc 4bd5 813b
00000260: 9e18 cd3b 7787 e63c 0769 15bc ccfa d4bc
00000270: a16f efbc d56b 74ba d46e 0cbd 6813 4a3c
00000280: e8ff 333c 2c51 663c 6efd 9dbc 1fb3 0a3b
00000290: 1979 06bc e7be 963c 0813 e0bc 9074 4f3c
000002a0: 4686 18bd b4ab 66bc 57a0 b8bc 0f94 42bc
000002b0: 1725 923c 3c53 89bb 4b41 8f3c 9d2b ab3b
000002c0: 3fad 13bd 9197 e2bc 48c4 06bd 5d4e 543c
000002d0: 65ac 733c af99 543c a26c f93b 5cc4 4fbd
000002e0: 7d78 3bbc dd7e 80bc 9179 233c a466 11bd
000002f0: acbd b8bc f1fd 87ba bb4e 253c 336e f4bb
00000300: affb 793c c821 4c3c 6f49 283c 5e7b edbc
00000310: 5709 8fbb d7a2 1abc ee45 15bd b0c7 903c
00000320: faac a6bc 80de 28bc d93b 07bd d45f a7bc
00000330: 2d9f bfbc 4e87 01bd 022d a2bb 176e 9d3c
00000340: 105e 03bd 3427 8dbc 27bc a1bc e75d abbc
00000350: 066c 4a3c 0066 26bd 213d e9bb a26d 10bc
00000360: 72c9 943b 0e2e 46bb a01e 13bd 065d 8cbb
00000370: 278d 21bd 47e5 a8bc 2c3a 54bc 755a 08bd
00000380: b6e2 d2bc a00d 5abb 7518 89bc 40f8 18bb
00000390: f096 ee3b 19fc b43c a0eb 5c3b 6ca4 9bbb
000003a0: ac58 25bd 5b8b 8fbc b19d 833c c75d dfbc
000003b0: 4c1b 2c3b 855f 05bd 952b 7c3a 9c8d 24bc
000003c0: c8af 1c3c 2dd9 1dbd 4175 b5bc 8846 c5bc
000003d0: 156f 313a a4aa 29bd 8800 363c 1b11 1abd
000003e0: 808a 023b 0f7c f1bc ab55 9c3c 2fc8 33bd
000003f0: 7868 fe3b 69a9 eebb 50b7 d7bc f230 90bc
-0.042309288 0.0026611367 -0.008987035 -0.042676415 -0.022978127 -0.01667731 -0.03909204 -0.019819781
-0.0052198702 -0.008692756 -0.02343984 0.005246314 -0.024752192 -0.020306714 0.032900278 -0.019020304
-0.0018323171 -0.030206049 -0.012118085 -0.0022853806 -0.027461404 -0.01410791 -0.012378462 -0.030340167
0.0014997734 -0.01971261 -0.02921522 0.011804949 -0.020917047 -0.016095968 -0.026133284 -0.03487368
0.010155226 0.015177088 0.012920541 -0.006987258 -0.012321343 -0.026013477 -0.012736456 0.018762698
-0.0071273753 -0.03697488 -0.02715807 -0.023499062 0.014782113 -0.0049889 -0.028586777 0.014535425
0.0039263703 -0.015105808 0.007901498 0.008456772 -0.025633302 -0.032230254 -0.034658458 -0.014816583
-0.0116186 -0.003885527 0.0027463948 -0.047918327 0.013807204 0.014521033 -0.0021726207 0.019469643
-0.0005312138 -0.036426876 -0.042157687 -0.017259682 -0.0026177869 -0.0156152565 -0.016844485 0.01822848
-0.007940164 0.0071616797 -0.024274714 0.015859496 0.0074727354 -0.036516212 -0.016221238 0.0064983293
-0.042603217 -0.04532605 -0.0019950597 0.0048515284 -0.0006906562 -0.037626255 0.017256292 -0.0070429784
-0.026716782 0.011189291 -0.0036721597 -0.039696805 -0.010782363 -0.015604896 -0.032789834 -0.026751662
-0.033130575 0.017151257 0.013184393 0.014670525 -0.02341707 0.011175835 0.0110478 0.010814905
-0.024522018 -0.004317394 -0.010249026 0.005629731 -0.045050293 -0.028798545 -0.018995149 -0.011340591
0.0024551621 -0.022782354 -6.4616666e-05 -0.04447501 0.002819473 -0.019582367 -0.022350524 -0.0072953757
-0.014572593 -0.043486267 0.005185437 0.012671224 -0.0048751915 0.01214524 -0.021165883 -0.0209499
-0.012200854 -0.04182141 -0.026212193 0.001470056 0.0046073124 -0.042334806 -0.021622961 0.012487037
-0.030653814 0.009623909 0.001828845 -0.03506401 -0.017566387 -0.015725806 -0.028698366 0.033736885
-0.008337253 -0.0031688984 0.0007111799 -0.03021052 -0.04506616 -0.03255902 -0.017417122 0.003962194
0.006259038 0.028140767 -0.009119279 -0.025998496 -0.029228033 -0.00093239296 -0.03428538 0.012333728
0.010986306 0.014057439 -0.019285884 0.0021163893 -0.008207583 0.018401576 -0.027352825 0.012662068
-0.037237428 -0.014079023 -0.022537393 -0.01187612 0.017839951 -0.0041908305 0.017487189 0.005223705
-0.036053892 -0.027660163 -0.032902032 0.012958136 0.014872645 0.012976094 0.007611827 -0.050724372
-0.011442301 -0.015685493 0.009977714 -0.035498276 -0.02255138 -0.0010375363 0.010089572 -0.007459426
0.01525776 0.012459226 0.010271414 -0.02898949 -0.004365127 -0.009438238 -0.036443643 0.017673343
-0.020346154 -0.010306954 -0.03301606 -0.020431437 -0.02339133 -0.031623177 -0.004949213 0.019217534
-0.032072127 -0.017230608 -0.019743038 -0.0209188 0.012354856 -0.04062462 -0.007117883 -0.008815201
0.0045406157 -0.0030239853 -0.03591788 -0.00428355 -0.039441254 -0.02061714 -0.012953322 -0.03328939
-0.02574287 -0.0033272281 -0.016735295 -0.0023341328 0.0072811767 0.022092866 0.003370978 -0.004749825
-0.040367767 -0.017522505 0.016066404 -0.027266396 0.0026261387 -0.032561798 0.00096195313 -0.010043528
0.009563394 -0.038537193 -0.022150638 -0.024081483 0.00067685667 -0.0414225 0.011108525 -0.03761397
0.0019918978 -0.029478101 0.019083818 -0.04389208 0.0077639185 -0.007283379 -0.026332527 -0.017601464

fc.0.bias f4 [64]
00000000: 745b d5bc f799 19bd 5a85 f3bc cade aa3b
00000010: 9481 c73c 25e2 35bd ca50 013c 5d93 fdbc
00000020: 70d3 cb3c e7c9 efbc e955 283d 563c 963c
00000030: 1262 d83a f493 f93b e925 05bd ff15 b73a
00000040: ae1b 03bd b325 7e3c 0980 82bd a755 b2ba
00000050: 98dc 96bc 347c 133b cd8d 19bd 5bc3 5b3b
00000060: dbc7 eb3c c552 a73c 92c4 2c3c 4906 f53c
00000070: 5b72 863c 8a88 233d 0c6a 15bc 1ed6 75bd
00000080: 5ae8 1b3c d4c5 98bc 5233 1b3d 8470 783c
00000090: 1ba8 613c ff51 34bc 42c1 033d 8b8b 6b3c
000000a0: c593 b9bc 5fb0 0f3d d1cb a8bc 4733 293d
000000b0: a96a 03bd 24cf b13b 0d98 e93b 3a47 1f3d
000000c0: 8d34 d9bc 8fb8 a23c 27bc 11bd 5956 2fbd
000000d0: d82c d3bb a9d9 bdbc 0695 723c 4751 143c
000000e0: 307d 83ba 7a2a 7ebd cb63 fd3c cf9e d2bc
000000f0: d85b 8fbc c626 15bc 51d0 e2bb c2d8 2c3c
-0.026044585 -0.037500348 -0.029726673 0.005214547 0.02435378 -0.04440512 0.007892797 -0.030954057
0.024881095 -0.02927108 0.041097555 0.018339317 0.001650872 0.0076165143 -0.032506857 0.0013968347
-0.03200882 0.015511918 -0.06372077 -0.0013605849 -0.018415734 0.002250445 -0.037488747 0.003353319
0.028781822 0.02042521 0.010544913 0.029910224 0.01641195 0.039925136 -0.009119522 -0.06001865
0.009515846 -0.01864902 0.03789074 0.015163545 0.01377299 -0.0110058775 0.032166727 0.014376531
-0.02265347 0.03508031 -0.020605 0.041308668 -0.03208414 0.0054263044 0.0071287216 0.038886286
-0.026514316 0.019863395 -0.035579827 -0.042806957 -0.006444555 -0.023175078 0.014806038 0.009052581
-0.0010031816 -0.062052228 0.030931374 -0.025710491 -0.01749985 -0.009103483 -0.006921806 0.010549726

fc.2.weight f4 [35, 64]
00000000: ffdb 4fbc 58e4 8c3c 0113 75bd 7b91 04be
00000010: 4ce0 a8be a597 6fbe 5a2d d73c 5803 ec3d
00000020: c090 423e 3bd7 39bd 56ce 03bd 1875 9bbe
00000030: c28b 8f3d 9e22 473e b0d9 ad3c 67ba bbbd
00000040: 845d a0bd c8bb 9ebc 4399 60bd c4e3 58be
00000050: 7c95 ee3d f602 463e 5f47 a1be 23f9 6e3e
00000060: c3ef 38be 40f3 643d 8d5b 563d 611b 343d
00000070: 5425 71bd a7a4 973d 48f1 c83a 2e48 fabc
00000080: c75d e8bd 3a35 20be 0402 0bbe 308d aabd
00000090: 6737 04be 8cb6 9c3d a9f8 8b3d d220 81bd
000000a0: 5efd 963d 12fc 0cbe e145 48bc 2a84 ce3d
000000b0: 4499 b83d 710a 54be 91e8 053d 1297 123e
000000c0: d973 803c 4baa 50bd 9f05 ff3c 21a2 983c
000000d0: bbe3 43bd f897 1b3e c526 a13d b209 3dbe
000000e0: ffa5 a73d b48c b3bd ce5c 7b3b 35c5 1fbd
000000f0: 6ae9 f7bd dc39 a43b 3faa 7bbd 84fb 30be
00000100: ed69 9a3c 7005 5bbd 5b8c 483d 557f 963d
00000110: 89cb 0dbe 2153 81be 2ac4 65bd ded3 cb3d
00000120: 918d 983d f34a c33d 9752 603e 8e1d 153d
00000130: cca6 263d e9e1 903c 160c 053e 18b6 d33c
00000140: ed03 e43c 3500 05bd 5813 c0bd 64bc 28be
00000150: 7cf3 79bc 5910 6f3e cd40 6f3c 74ca 00be
00000160: f743 c53c 6895 babd adf7 823c 184b 44be
00000170: 6eab 6b3d 2caf b9be 264f 233e d85e 0fbd
00000180: 09a2 153e 156f fdbd 4e78 3f3d 8d04 243e
00000190: c430 ae3d 5b10 bebe b3ad 4d3e c225 c53d
000001a0: a039 4abd cbbd efbd 1fcb e2bc 98d3 9c3d
000001b0: 71f4 6a3d df09 a7be 8edf 8fbc dde0 94bd
000001c0: ec5b 25bd c29d d43d 3497 a73d 4606 98bd
000001d0: 6b45 c3bc 9350 013e 6d77 89bd 6415 a33e
000001e0: 9ccb adbd c70a ba3d db12 94bd ea89 30be
000001f0: 2015 d53d ab0f 9dbc b1bc ef3d 5e1d ef3d
00000200: 424f d13d 53f0 8abd e6f8 98bd e41a d7bd
00000210: 457d 763c 6b31 4ebe 2502 1b3d bdee a63d
00000220: bf0d 6c3e 3837 973d 7a58 fe3c 54b9 003e
00000230: 1137 a23d 537c 23be 670c b9ba c856 443d
00000240: a58e 60bc 8bfa bbbc a6e2 9d3d 4e8c 62bd
00000250: c305 263e 02aa 073d 927b 0dbd 1b35 43be
00000260: 337a 0d3b abda 5ebd fb7d a53d 0b75 3f3e
00000270: 62af ecbd 0e53 60be 5146 6dbe 0472 b5bd
00000280: 3851 923e 348e 21bc 157c c3bd 78d8 a2be
00000290: a310 f9bd 0e94 443e 9074 1a3e 9b1d e33b
000002a0: 09b5 bf3d 329e a23a 613c 4dbb 4177 2dbe
000002b0: e034 67bd ceb1 14bf de9a 6ebc e0b4 65be
000002c0: 0ceb e0bd 8c52 923d f888 373d 3dd7 b23d
000002d0: 86c6 6ebc 58b8 be3c 0e8d a7bc 460d 98be
000002e0: 4cd9 10bd 9e92 cc3d f0ca cebe e66c 19be
000002f0: 1086 b7bd 7dd9 69bc 8c88 8abd fa67 32bd
00000300: 7234 b8bc 52c7 03be 542f ea3d b68c edbd
00000310: 25f8 853d 4977 49be 6b4a 03bd 20bf 833d
00000320: 679e 0c3e 117e 9f3d 9cad ffbd 9e41 46be
00000330: d2eb c3bd 153b 713d 19f3 b83d 7808 203d
00000340: 22d4 623d 0793 283d efe0 59bd b3e9 60bd
00000350: da6f a2be ea10 e23b 07bd 9e3d cab4 99bd
00000360: 9312 613e 79ef 843d 61fa fa3b a5fb 51be
00000370: 3c71 443d 4d30 4bbe bd9f 81be 9116 e8bd
00000380: b537 f4bd badc df3c 1367 aebe af4e 1ebd
00000390: 6a25 93bb ab07 5d3d 9255 3c3d a52f bfbd
000003a0: cb13 75bd 8ba5 f73d f3aa 003e f374 373e
000003b0: ae6a 3ebd 644f 10be acdd d13d 875b d63d
000003c0: 281c a53b 449b a63c 1eef 8a3c b976 d33d
000003d0: 0617 633d 4b67 ebbd 4333 8bbd 2cab c1be
000003e0: d89a f0bd 3c3e e83d 735b 1dbe d34c f9bd
000003f0: 4df8 d73b c1e3 773d 9df7 07bd aab6 253e
-0.0126867285 0.017198727 -0.059832577 -0.12946121 -0.32983625 -0.23397692 0.026266742 0.11524075
0.1900053 -0.045371275 -0.0321792 -0.30362773 0.070090786 0.19446799 0.021221966 -0.09166413
-0.07830337 -0.01937665 -0.05483366 -0.21180636 0.11649606 0.19337067 -0.31499764 0.23337226
-0.18060212 0.055896044 0.052333403 0.043971423 -0.05887349 0.07404452 0.0015330696 -0.030551996
-0.113460116 -0.15645304 -0.13574988 -0.08327711 -0.1291176 0.076520056 0.068345375 -0.06305088
0.07372545 -0.13768032 -0.012223692 0.10083802 0.09013608 -0.20707108 0.032692496 0.14315441
0.01568024 -0.050943654 0.03113061 0.018631997 -0.047824603 0.1519469 0.07868723 -0.1846073
0.08185958 -0.08767071 0.0038354876 -0.03900643 -0.12105067 0.00501178 -0.061441656 -0.17283446
0.018849337 -0.053471982 0.04896198 0.073485054 -0.13847174 -0.25258735 -0.05609528 0.0995252
0.07448877 0.0953578 0.21906506 0.03640514 0.040686414 0.017685847 0.12992892 0.025843665
0.027833903 -0.0324709 -0.093786895 -0.16478115 -0.015255805 0.2334608 0.014602852 -0.1257723
0.02408026 -0.09110528 0.015987242 -0.19169271 0.057536535 -0.36266458 0.15948161 -0.03500256
0.14612593 -0.12374703 0.04674559 0.16017361 0.08505395 -0.37121853 0.20085792 0.09626342
-0.04937136 -0.11706122 -0.027684746 0.07657546 0.057362024 -0.3262472 -0.017562654 -0.07269452
-0.040370867 0.103816524 0.081831366 -0.074230716 -0.023836812 0.12628393 -0.06712232 0.31852257
-0.08486101 0.09084087 -0.07230159 -0.1724011 0.1040442 -0.01917251 0.11705912 0.11675523
0.10220195 -0.067841195 -0.074693486 -0.10503176 0.015044515 -0.20136039 0.037843842 0.081510045
0.23052119 0.07383579 0.031048048 0.12570697 0.07920659 -0.15965395 -0.0014118076 0.047934324
-0.013705884 -0.022946617 0.077092454 -0.055309586 0.16213135 0.033121116 -0.034541674 -0.19063227
0.002158773 -0.054407757 0.080806695 0.18696992 -0.11556889 -0.21906683 -0.23171355 -0.088596374
0.2857759 -0.009860564 -0.09545151 -0.31805778 -0.12161376 0.19197103 0.15083528 0.0069310195
0.093607016 0.0012406765 -0.0031316506 -0.16940023 -0.05644691 -0.5808381 -0.01456329 -0.2243228
-0.10982332 0.07144651 0.044808358 0.0873246 -0.014573699 0.023281261 -0.020453002 -0.29697627
-0.03536348 0.099889025 -0.40389204 -0.14982948 -0.08961117 -0.014273045 -0.067643255 -0.04355619
-0.022485945 -0.12869003 0.114348084 -0.11599104 0.065414704 -0.1967441 -0.032053392 0.064329386
0.137323 0.07787717 -0.12484285 -0.19360968 -0.095664635 0.058894236 0.09030742 0.039070576
0.055378087 0.04115584 -0.05319303 -0.054910373 -0.3172596 0.006898989 0.07750898 -0.07505186
0.21979742 0.06490988 0.007659242 -0.20506151 0.04795955 -0.19842644 -0.25317183 -0.11332429
-0.11924688 0.02732693 -0.34063014 -0.038649257 -0.004490544 0.05396239 0.045980044 -0.09335259
-0.05983333 0.12092122 0.12565212 0.17915706 -0.046488456 -0.14092785 0.10247359 0.10466676
0.005038757 0.020337708 0.016959723 0.10325379 0.05544188 -0.11494311 -0.06796887 -0.37825906
-0.11748284 0.11339995 -0.15366916 -0.12172856 0.006590879 0.060519937 -0.033195127 0.16182962

fc.2.bias f4 [35]
00000000: 60f6 8dbd 7bec 8b3d 7fe2 7cbc c10f 483d
00000010: 1ccf b13d 4d01 b4bc 6ae5 e4bc e623 8e3d
00000020: e70b acbd 2277 373d b51f f4bd fbaa 26bc
00000030: d5cb 46bd f10e 703c eebe 59bd 7e96 8e3c
00000040: 5120 fdbc 7863 2e3d 576c aa3b 991a 8fbd
00000050: 7ffb c3bd 39e0 87bd a20b cd3d f496 933d
00000060: e612 993b eb49 b93c 6996 cbbd cc5b 1dbe
00000070: 4624 45bd ba11 c0ba 9eaa f6bd 3569 a63c
00000080: c56e 97bc e19f bfbb c844 bc37
-0.06931758 0.068322144 -0.01543486 0.04884315 0.08682081 -0.021973277 -0.027941424 0.06940441
-0.08400708 0.04479135 -0.1192011 -0.010172601 -0.048534233 0.014652 -0.0531606 0.017405745
-0.030899199 0.04257533 0.0052009034 -0.06987495 -0.095694534 -0.06634564 0.100119844 0.072065264
0.0046714423 0.022618255 -0.09940798 -0.15367049 -0.048130296 -0.001465372 -0.120442614 0.020313838
-0.018485436 -0.0058479165 2.2443375e-05
